6_CNN-ImgClassification/models/mnist.pth (torch, 250789 bytes, 10 tensors)

conv_layers.0.weight f4 [6, 1, 5, 5]
0	0xbc6c0ad4	-0.0144068785
1	0xbdc91288	-0.09817988
2	0xbec8acec	-0.3919443
3	0xbf2455bf	-0.6419334
4	0xbe8b4015	-0.27197328
5	0xbe828df2	-0.2549892
6	0xbe8afe50	-0.2714715
7	0xbece89b8	-0.40339446
8	0x3ad01e4e	0.0015878172
9	0x3e9c598d	0.30537072
10	0x3d0f8476	0.035038434
11	0xbcc6c00d	-0.024261499
12	0x3ee953a2	0.4557162
13	0x3ef4758e	0.47745937
14	0x3e3af127	0.18256055
15	0x3e7ccd74	0.24687749
16	0x3e2d4320	0.16920137
17	0x3e1e1c5f	0.1544051
18	0xbe65ca11	-0.22440363
19	0xbef5487a	-0.47906858
20	0xbe4cc6d0	-0.19997716
21	0xbe937976	-0.28803605
22	0xbebb89ab	-0.3662847
23	0xbec6adb7	-0.3880441
24	0x3d72a44e	0.059238724
25	0x3d3582b2	0.044314094
26	0xbe37e6c8	-0.1795913
27	0xbb1685d0	-0.0022967942
28	0x3d1120e0	0.035431743
29	0x3d0f146e	0.034931593
30	0xbcf970d1	-0.030449303
31	0xbe87461d	-0.2642068
32	0xbe7027eb	-0.23452727
33	0xbeb947e5	-0.36187664
34	0xbd7ade36	-0.061247073
35	0x3e9343cf	0.2876267
36	0x3c043edd	0.008071628
37	0xbe84ce10	-0.25938463
38	0xbef94153	-0.4868265
39	0x3d69d5bd	0.057088602
40	0x3ec9fa79	0.39448908
41	0x3dece515	0.115671314
42	0xbe9ef826	-0.31048697
43	0xbdcddce1	-0.10051895
44	0xbd1dd5f4	-0.03853412
45	0x3e9f68c8	0.3113463
46	0x3ec78c86	0.38974398
47	0x3d727d6b	0.05920164
48	0x3d526c2d	0.051372696
49	0x3d907ca6	0.07055025
50	0xbda18f41	-0.07888652
51	0xbe8603b6	-0.26174706
52	0x3d2f9d64	0.04287471
53	0x3d18c284	0.03729488
54	0xbd8c77f0	-0.06858814
55	0x3e26119d	0.16217656
56	0x3e8b8231	0.27247766
57	0x3e37eb5a	0.17960873
58	0x3e8ac029	0.27099732
59	0x3eb1b749	0.34710148
60	0xbe5f5bea	-0.21812406
61	0x3cc9f07a	0.024650801
62	0x3bdb7185	0.006696882
63	0x3e3ad3d2	0.18244866
64	0x3ec040f4	0.37549555
65	0xbeec624a	-0.4616874
66	0x3deaff36	0.11474459
67	0x3e35b440	0.17744541
68	0xbe3c6d4b	-0.18401067
69	0xbdece213	-0.11566558
70	0xbf05503a	-0.5207554
71	0xbf68f448	-0.90997744
72	0xbf1c5749	-0.61070687
73	0xbf22e1b4	-0.63625646
74	0xbee367ee	-0.4441523
75	0xbd839cc8	-0.06426388
76	0xbf1a8d0b	-0.60371464
77	0xbe9c7478	-0.3055761
78	0xbea230bc	-0.31677806
79	0x3d22fc63	0.039791476
80	0xbe49886d	-0.19680949
81	0xbe8ca1dc	-0.2746724
82	0xbdd3c1f7	-0.1033973
83	0xbdef130c	-0.11673555
84	0xbf1bf45d	-0.60919744
85	0xbe321eca	-0.17394558
86	0x3cf3ec2c	0.029775701
87	0x3c93bdea	0.018034894
88	0x3e7f0251	0.24903227
89	0xbec7da03	-0.39033517
90	0xbea475ce	-0.32121128
91	0x3cac555f	0.021036802
92	0x3d9a0ac5	0.075215854
93	0x3dc06e25	0.093960084
94	0xbe35f5d1	-0.17769553
95	0x3e7a82f4	0.24464017
96	0xbe3cca2e	-0.184365
97	0x3c7331e4	0.014843438
98	0xba265b72	-0.0006346024
99	0x3f3b58a7	0.7318215
100	0x3e180bbe	0.1484823
101	0xbdbddc74	-0.09270564
102	0xbe0a0156	-0.13477072
103	0xbdffdd21	-0.12493349
104	0xbd572cd0	-0.05253297
105	0xbe390762	-0.18069223
106	0xbdb14ffd	-0.08657835
107	0xbc998153	-0.018738424
108	0x3d28922e	0.041155033
109	0x3e43d258	0.19123209
110	0xbe9d8f5b	-0.30773434
111	0xbee143dd	-0.43997088
112	0x3e1083f2	0.14112833
113	0x3ec77a9b	0.38960728
114	0xbdb14187	-0.086550765
115	0xbf00d991	-0.5033198
116	0xbdb90dc4	-0.09035829
117	0x3ed40c6c	0.41415727
118	0x3d8ccbca	0.06874807
119	0xbdee43b5	-0.11634008
120	0xbf0c252f	-0.5474424
121	0x3ceb0219	0.028687524
122	0x3e9f59e1	0.3112326
123	0x3ea536b6	0.32268304
124	0xbe32d000	-0.17462158
125	0x3edf3ed4	0.43602622
126	0x3e792992	0.24332264
127	0xbdb729cb	-0.08943518
128	0xbea7c5e0	-0.32768154
129	0xbe73749f	-0.23774956
130	0x3efcf3f8	0.49404883
131	0x3b498258	0.0030747857
132	0xbeca9355	-0.3956553
133	0xbdcec62f	-0.10096394
134	0xbdbc157f	-0.091837876
135	0x3e06cb82	0.1316357
136	0xbe7f409c	-0.2492699
137	0xbdfdf1f2	-0.12399663
138	0xbe9b3770	-0.30315733
139	0xbd9e54c3	-0.07731011
140	0xbe0737b8	-0.13204849
141	0xbebc21a0	-0.36744404
142	0xbe7b3fb7	-0.24536024
143	0xbdaa4cdc	-0.08315441
144	0x3cc47326	0.023980688
145	0x3de3f9c7	0.111316256
146	0xbcbf3045	-0.023338446
147	0x3d7d0602	0.061773308
148	0xbe1efad8	-0.15525377
149	0xbd25917b	-0.040421944

conv_layers.0.bias f4 [6]
0	0xbf9804c0	-1.187645
1	0xbfb09421	-1.3795205
2	0xbf98a51a	-1.1925385
3	0xbfaefc9a	-1.3670838
4	0xbfac9fdf	-1.3486289
5	0xbfba5f72	-1.4560378

conv_layers.3.weight f4 [16, 6, 5, 5]
0	0x3f2906a1	0.6602574
1	0x3e7d9358	0.24763238
2	0x3ddbd1d0	0.10733378
3	0xbe962dae	-0.29331726
4	0xbf08f158	-0.5349326
5	0x3edd5bee	0.432342
6	0x3e9d7d44	0.30759633
7	0x3e8b7229	0.27235535
8	0xbda603f8	-0.08106226
9	0xbf31c653	-0.69443244
10	0xbf1dcf4d	-0.6164444
11	0xbeeea031	-0.4660659
12	0x3d6c9b77	0.05776545
13	0xbef398e5	-0.47577587
14	0x3e19719f	0.1498475
15	0xbe9e461f	-0.30912873
16	0x3e91cc5e	0.28476232
17	0xbf3076ad	-0.68931085
18	0xbf771364	-0.9651396
19	0xbf8f42bc	-1.1192241
20	0x3ce5f04d	0.028068686
21	0xbedfb456	-0.43692273
22	0xbe09c714	-0.13454849
23	0xbe950020	-0.29101658
24	0xbf60e15c	-0.8784387
25	0x3f3b029d	0.7305086
26	0xbd76dd88	-0.060269862
27	0xbbd24cc8	-0.0064178444
28	0x3e46cd85	0.19414337
29	0x3e41a461	0.18910362
30	0xbf537e19	-0.82614285
31	0xbec5be17	-0.3862159
32	0xbea6303d	-0.32458678
33	0x3e0debdd	0.13859506
34	0x3ebafab3	0.36519393
35	0x3db14b97	0.08656996
36	0x3e1d979a	0.15389863
37	0xbef147a6	-0.47124976
38	0xbf342205	-0.7036441
39	0xbc33dc35	-0.010977794
40	0xbe026d07	-0.12736903
41	0xbdfb2eaf	-0.122647636
42	0xbda5dd37	-0.08098834
43	0x3c8a2990	0.016865522
44	0xbf0373b3	-0.5134842
45	0x3d87b4a4	0.06626251
46	0xbc9265a4	-0.017870732
47	0xbe88b171	-0.26697877
48	0xbd3fd792	-0.046836443
49	0xbeabf8da	-0.33588296
50	0x3c2c2de0	0.010508984
51	0xbe89f5f4	-0.2694546
52	0xbd1dc4a2	-0.0385176
53	0xbc840a1d	-0.016118104
54	0xbda8625c	-0.082218856
55	0x3fa01c3a	1.2508614
56	0x3eedf4a9	0.46475723
57	0x3e887c91	0.26657537
58	0x3cbfcad7	0.023412151
59	0xbd920e9f	-0.07131695
60	0x3eaaea9c	0.33382118
61	0xbe6c3c25	-0.23069818
62	0xbed68c9c	-0.4190415
63	0xbf4f6dfb	-0.8102719
64	0xbf8a0628	-1.0783129
65	0xbbb7b2ad	-0.0056060166
66	0xbe7c5c98	-0.24644697
67	0xbf3a2e0b	-0.72726506
68	0xbf5f17aa	-0.87145483
69	0xbfc9aaff	-1.5755309
70	0x3e21e4a1	0.15809871
71	0x3da89dfe	0.082332596
72	0xbe13c496	-0.1443046
73	0xbf2b87b3	-0.67003936
74	0xbfb85c39	-1.4403144
75	0xbd7662bb	-0.06015275
76	0x3ea724c0	0.32645226
77	0x3e57634b	0.21033971
78	0xbe2c59a9	-0.16831078
79	0x3d134cf8	0.035962075
80	0xbd849af4	-0.064748675
81	0xbe815ac0	-0.2526455
82	0xbe3dd2e8	-0.18537486
83	0x3db5a5d3	0.08869519
84	0xbdca75ab	-0.09885725
85	0x3e78f6bb	0.2431287
86	0xbe72caa1	-0.2371011
87	0xbf5ddfa0	-0.8666935
88	0xbf4b7179	-0.7947002
89	0xbf5331ee	-0.8249806
90	0x3ed7f2bf	0.42177388
91	0x3ed44c39	0.41464403
92	0xbf568c5a	-0.8380791
93	0xbf55d156	-0.83522546
94	0xbf122adf	-0.57096666
95	0xbe904e18	-0.2818458
96	0xbd3d1a24	-0.046167508
97	0xbf0b3561	-0.54378325
98	0x3e9af2e7	0.30263445
99	0xbe8a62a5	-0.27028385
100	0x3cef9a58	0.029248402
101	0x3d41e30d	0.047335673
102	0xbf077197	-0.529077
103	0x3ec57888	0.3856852
104	0xbe46deb5	-0.19420893
105	0xbf11eca1	-0.5700169
106	0xbf19f32d	-0.6013668
107	0xbf31296a	-0.6920382
108	0xbf1c882b	-0.61145276
109	0xbe9650f9	-0.29358652
110	0xbeb6d702	-0.35710913
111	0xbf77e83f	-0.96838754
112	0xbf7ef81b	-0.9959733
113	0xbeaa0db3	-0.33213577
114	0xbec9829c	-0.3935746
115	0xbed03b03	-0.40670022
116	0xbfdaca5e	-1.7093008
117	0xbf49189b	-0.7855317
118	0xbe0f284c	-0.13980216
119	0xbeebb549	-0.46036747
120	0xbe85ce7c	-0.26134098
121	0xbea5e279	-0.32399347
122	0x3e200016	0.15625033
123	0xbebda2ad	-0.37038174
124	0xbdbbbeee	-0.09167276
125	0xbd9eb25a	-0.077488616
126	0x3e39fe4f	0.18163417
127	0xbf2420c2	-0.64112484
128	0xbf399092	-0.7248622
129	0xbd5beff7	-0.053695645
130	0xbdf10fc5	-0.11770586
131	0x3d97815e	0.07397722
132	0x3c53db55	0.012930711
133	0x3e8d5103	0.2760087
134	0x3e6f4fd7	0.233703
135	0xbea36140	-0.31910133
136	0x3e717329	0.23579086
137	0x3ec66d04	0.38755047
138	0x3cd41e0f	0.02589324
139	0x3eddbde1	0.4330893
140	0xbf4821f0	-0.78176785
141	0xbf68a706	-0.9087986
142	0xbf719c24	-0.94378877
143	0xbfab514a	-1.3384182
144	0xbf547f98	-0.8300719
145	0xbe388901	-0.18021013
146	0x3d7948cb	0.060860436
147	0xbfea3b38	-1.8299322
148	0xbfd96ccf	-1.6986331
149	0xbf2cb74d	-0.67467195
150	0xbca7acd5	-0.020468155
151	0xbcaf59eb	-0.02140518
152	0xbcc35ff7	-0.02384947
153	0xbda88c6b	-0.082299076
154	0xbe06e5b8	-0.13173568
155	0x3d41bcfd	0.047299374
156	0xbcee43f7	-0.029085143
157	0x3be0ce3b	0.006860522
158	0xbcedd2df	-0.029031215
159	0xbd4a58df	-0.04940116
160	0x3b9b15c6	0.00473282
161	0xbd7c3c9d	-0.061581243
162	0xbd14bf97	-0.036315527
163	0xbcb72b9d	-0.022359664
164	0xbc329df3	-0.010901916
165	0xbcb35609	-0.02189161
166	0xbd6cb18b	-0.057786506
167	0xbd546689	-0.051855598
168	0xbd6705a3	-0.05640186
169	0xbde38e3a	-0.11111112
170	0xbd7f4eca	-0.062331
171	0xbcf85ad7	-0.030316753
172	0xbdc4226a	-0.095768765
173	0xbdb9e1bd	-0.09076259
174	0xbe0ba3d1	-0.1363671
175	0x3c5859cb	0.013205002
176	0xbd4cc23a	-0.049989916
177	0xbd019b9a	-0.031642534
178	0xbdba9ff9	-0.091125436
179	0xbc9fb836	-0.019497018
180	0x3cca3f17	0.024688287
181	0xbca4fa08	-0.020138755
182	0xbd1e25d8	-0.03861031
183	0xbcfd671e	-0.03093296
184	0xbcc16bc6	-0.02361096
185	0xbc53cebb	-0.012927706
186	0xbda11f50	-0.078673005
187	0xbd7ff0ac	-0.062485382
188	0xbd86e55a	-0.06586714
189	0x3b100061	0.0021972882
190	0xbd0bfc07	-0.0341759
191	0xbd9f159c	-0.077677935
192	0xbdc93e6b	-0.098263584
193	0xbd8e87cc	-0.06959495
194	0xbb8dbd85	-0.004325571
195	0xbd4feb21	-0.050761346
196	0xbdf65b24	-0.120291024
197	0xbdfb9b83	-0.12285521
198	0xbcfe3346	-0.031030308
199	0xbd330a70	-0.043711126
200	0xbd004347	-0.03131416
201	0xbcbd9e64	-0.023146816
202	0xbd2ba1ad	-0.041902233
203	0xbc6c6406	-0.014428144
204	0xbd1c8df1	-0.038221303
205	0xbdb0e361	-0.08637119
206	0xbd674f13	-0.056471895
207	0xbca47c9e	-0.020078953
208	0xbd90f0e7	-0.070771985
209	0xbdef692f	-0.11689984
210	0xbdb4ada7	-0.08822184
211	0xbd2bce4a	-0.04194478
212	0xba98e1e1	-0.0011663997
213	0xbce7c41b	-0.028291753
214	0xbd84f310	-0.06491673
215	0xbe12f926	-0.14352855
216	0xbd81f06e	-0.063446864
217	0xbc5a1170	-0.0133098215
218	0xbd87a351	-0.06622947
219	0xbd2c6583	-0.042088997
220	0xbdddecbe	-0.108361706
221	0x3d414f7a	0.047194935
222	0xbae31153	-0.0017323889
223	0xbd4a4d1c	-0.049389943
224	0xbd6bee85	-0.057600517
225	0x3cf8afe5	0.03035731
226	0xbd5873ac	-0.05284469
227	0x3cb3cca2	0.021948162
228	0xbc42a172	-0.011879312
229	0xbd7e078c	-0.062018916
230	0x3c9ddc8b	0.019270202
231	0xbd52b9c1	-0.05144668
232	0xbd5f43a0	-0.05450785
233	0xbd95c23b	-0.07312437
234	0xbcf2a023	-0.029617375
235	0xbd65bbf6	-0.056087457
236	0xbd33fb6c	-0.043940946
237	0xbcf82abb	-0.030293813
238	0xbd216d9b	-0.03941117
239	0xbdb49ca4	-0.08818939
240	0xbe038101	-0.1284218
241	0xbd147112	-0.036240645
242	0xbcff92cd	-0.03119793
243	0xbd61d185	-0.055131454
244	0xbdef5e91	-0.11687959
245	0xbdd615ca	-0.10453375
246	0xbe0c2dd9	-0.13689364
247	0xbd6b43a5	-0.057437558
248	0xbd377171	-0.04478592
249	0x3c68bc72	0.014205085
250	0xbdaa5bb6	-0.08318274
251	0xbd62e33c	-0.05539249
252	0xbd316de3	-0.043317687
253	0xbcce73be	-0.025201675
254	0xbdb1d4a5	-0.08683137
255	0xbe167904	-0.14694601

conv_layers.3.bias f4 [16]
0	0xbe891636	-0.26774758
1	0xbdef3652	-0.11680283
2	0xbf7fee63	-0.99973124
3	0xbd6438ba	-0.05571816
4	0xbe313108	-0.1730386
5	0xbc99f82c	-0.018795095
6	0xbf6f0795	-0.93370944
7	0xbf3087c2	-0.6895715
8	0xbeef792e	-0.4677214
9	0xbde4221a	-0.11139317
10	0xbce94358	-0.028474495
11	0xbf296385	-0.6616748
12	0xbd3d047f	-0.046146866
13	0xbd5a5439	-0.053302977
14	0xbcdb5464	-0.026773639
15	0x3e8b78fa	0.27240735

conv_layers.6.weight f4 [120, 16, 5, 5]
0	0xbce2aece	-0.027671244
1	0x3b52904e	0.003212947
2	0x3cb5966d	0.022166455
3	0xbcafae97	-0.021445556
4	0x3c592c5b	0.013255204
5	0x3cb79220	0.022408545
6	0xbbebcfb4	-0.007196391
7	0xbc0c4200	-0.0085606575
8	0xbbd380db	-0.0064545698
9	0xbb7cde8a	-0.0038584792
10	0x3b1c42d7	0.002384355
11	0xbbe25a4f	-0.0069077383
12	0xbd3c2eea	-0.04594318
13	0xbd365cda	-0.044522144
14	0xbd2957ff	-0.041343685
15	0xbbf4e18c	-0.0074731763
16	0xbc96f721	-0.018428387
17	0xbd179a6a	-0.037012495
18	0x3c2a67db	0.010400738
19	0x3c6becc1	0.014399708
20	0xbc137a0d	-0.009001267
21	0xbd0ffe7d	-0.03515481
22	0xbbe42fd1	-0.006963708
23	0x3d48fc2f	0.049068626
24	0xbc630c30	-0.013857886
25	0x3b042d87	0.0020168738
26	0xbbff6168	-0.007793594
27	0x3adc02fb	0.0016785556
28	0xbc8339e8	-0.016018823
29	0xbc79b3fd	-0.015240666
30	0xbcc9f7f8	-0.024654374
31	0xbc7c9504	-0.0154163875
32	0xbcee0fbb	-0.029060235
33	0xbd095141	-0.033524755
34	0xbca011fd	-0.019539827
35	0xbc79f7b3	-0.01525681
36	0xbd28d95e	-0.041222923
37	0xbb801b51	-0.0039095064
38	0xbc978057	-0.018493814
39	0xbcf00a35	-0.029301742
40	0xbc23cb2b	-0.0099971695
41	0xbc2f9907	-0.010717637
42	0xbd42bd14	-0.0475436
43	0x3c4357a9	0.011922755
44	0xbd0e0f6c	-0.034682676
45	0x3c4d0e3d	0.012515602
46	0xbd051f84	-0.03250076
47	0xbd456c1a	-0.048198797
48	0xbcafea58	-0.021474048
49	0xbd132e52	-0.035932846
50	0xbd415bcf	-0.047206696
51	0xbcad927e	-0.021188017
52	0xbc294647	-0.010331697
53	0xbcd922d2	-0.026505861
54	0xbc5e890f	-0.013582482
55	0xbcf4f6db	-0.029902866
56	0xbca82c3c	-0.020528905
57	0xbd23f819	-0.040031526
58	0xbd0d6ba7	-0.034526493
59	0xbd42d23f	-0.047563788
60	0xbcbe9d6f	-0.02326843
61	0xbc824d52	-0.01590601
62	0xbca7adf4	-0.02046869
63	0xbbb2367c	-0.005438624
64	0xbc5c04bb	-0.013428862
65	0xbc908d33	-0.017645454
66	0xbc7e21c0	-0.015510976
67	0xbc6d03ab	-0.014466207
68	0xbc9dc6db	-0.01925986
69	0xbcb94393	-0.02261523
70	0xbd341bca	-0.043971814
71	0xbc2953c5	-0.010334914
72	0xbc2132e8	-0.009838797
73	0xbb5aa33a	-0.003336145
74	0xbcc2a1ef	-0.023758857
75	0xbc4acb52	-0.012377577
76	0xbd2d762b	-0.042349022
77	0xbbdf4ba5	-0.0068144375
78	0xbce5dd2f	-0.02805957
79	0xbb531265	-0.003220701
80	0xbca061a4	-0.019577809
81	0xbba71bc7	-0.005099747
82	0xbd4a272a	-0.049353756
83	0xbd1d1f65	-0.03836002
84	0xbcd5173f	-0.026012061
85	0xbc93dcab	-0.018049559
86	0xbd0fd821	-0.035118226
87	0xbca46940	-0.020069718
88	0xbbf5264c	-0.007481372
89	0xbc3bebce	-0.011469794
90	0xbd2d196c	-0.042260572
91	0xbd2b3b17	-0.0418044
92	0xbb6379a7	-0.0034709962
93	0xbcf1aa84	-0.029500253
94	0xbc32b98d	-0.010908497
95	0xbd342bea	-0.043987192
96	0xbd1e85a7	-0.03870168
97	0xbd34cfd0	-0.044143498
98	0xbd31414a	-0.043275155
99	0xbcca4a74	-0.024693705
100	0xbc3f4195	-0.011673351
101	0xbd27ab9e	-0.04093515
102	0xbce0b385	-0.027429352
103	0xbd388e69	-0.045057688
104	0xbd13f94e	-0.036126427
105	0xbd0d34e3	-0.034474265
106	0xbbb84e16	-0.005624543
107	0xbd21d31d	-0.039507974
108	0xbd13d698	-0.036093324
109	0xbd3a83f9	-0.045536015
110	0xbce92110	-0.028458148
111	0xbcc41c7e	-0.023939367
112	0xbd455355	-0.048175175
113	0xbc66ea96	-0.014094016
114	0xbd30385c	-0.0430225
115	0xbc020dae	-0.007937832
116	0xbb714e53	-0.0036820367
117	0xbcc93f45	-0.024566302
118	0xbd0a5954	-0.033776596
119	0xbd386bb9	-0.045024607
120	0xbbecc396	-0.007225464
121	0xbd0d9d5a	-0.03457389
122	0xbd0d507e	-0.03450059
123	0xbd0e40f8	-0.034729928
124	0xbc803e55	-0.015654722
125	0xbcab0ca8	-0.020880058
126	0x3c22beb0	0.009933159
127	0xbc4b8a20	-0.012423068
128	0xbcdc5d1c	-0.026899867
129	0xbcd1b746	-0.025600087
130	0xbd0ee5f6	-0.034887277
131	0xba9e4c84	-0.0012077247
132	0xbc9b0b63	-0.018926328
133	0xbbd4b830	-0.0064916834
134	0xbc93f9c7	-0.018063439
135	0x3c1737ec	0.009229641
136	0xbbd6640e	-0.006542689
137	0x3b1a370d	0.0023531348
138	0x3c4e7f33	0.012603569
139	0x3c955373	0.018228268
140	0x3cd2631f	0.02568203
141	0xbd1944ed	-0.03741925
142	0xbc435012	-0.011920946
143	0x3ca11087	0.019661201
144	0x3c19ede2	0.009395095
145	0xbd367637	-0.044546332
146	0xbbea657c	-0.007153211
147	0xbc8506eb	-0.01623865
148	0x3cbf8959	0.023380922
149	0x3b92d270	0.0044806525
150	0xbc7f2fc0	-0.015575349
151	0xbd2b4e1e	-0.041822545
152	0xbbecf24e	-0.0072310334
153	0xbd1b22b4	-0.037874892
154	0xbd44375f	-0.04790437
155	0xbd127d56	-0.03576406
156	0xbca30547	-0.019899977
157	0xbd0025be	-0.031285994
158	0xbc5d96c3	-0.013524714
159	0xbcc884de	-0.024477419
160	0xbc164526	-0.00917176
161	0xbd1f5749	-0.0389016
162	0xbbcb814e	-0.0062104827
163	0xbc72b08c	-0.0148126
164	0xbc4de1fa	-0.012566084
165	0xbd2af3f1	-0.041736547
166	0xbc2f1b92	-0.010687726
167	0xbd00774a	-0.031363763
168	0xbcbe7a39	-0.02325164
169	0xbbee7d54	-0.007278124
170	0xbd13fd64	-0.036130324
171	0xbb9157f1	-0.0044355323
172	0xbbbfa708	-0.005848769
173	0xbd1ab7f6	-0.037773095
174	0xbcbb8d21	-0.022894444
175	0xbd13f718	-0.03612432
176	0xbbedc1da	-0.007255775
177	0xbd3ab310	-0.045580924
178	0xbb89d0d8	-0.0042058043
179	0xbd247761	-0.04015291
180	0xbcc2c81b	-0.023777058
181	0xbcc55861	-0.024089994
182	0xbcd48942	-0.025944356
183	0xbd05a3ec	-0.03262703
184	0xbcdaae81	-0.026694538
185	0xbd18b2b0	-0.037279785
186	0xbc63a308	-0.01389385
187	0xbcc75ae7	-0.024335338
188	0xbcc587ba	-0.024112571
189	0xbcd9a218	-0.02656655
190	0xbd10820f	-0.035280284
191	0xbd1ce709	-0.03830627
192	0xbd2bf881	-0.04198504
193	0xbd33af71	-0.043868486
194	0xbd270326	-0.040774487
195	0xbc8275c9	-0.015925305
196	0xbb8cf8e0	-0.004302129
197	0xbc99ea53	-0.018788492
198	0xbd0531c2	-0.032518156
199	0xbc9a8ab2	-0.018864963
200	0xbcdcd9d1	-0.026959332
201	0xbca7600e	-0.020431545
202	0xbd1beb39	-0.038066123
203	0xbd29d419	-0.041462038
204	0xbc29fb67	-0.01037488
205	0xbd3697be	-0.044578306
206	0xbc82527e	-0.015908476
207	0xbb4347d2	-0.0029797447
208	0xbd0af441	-0.033924345
209	0xbd1c0225	-0.038087983
210	0xbd1e6b2e	-0.038676433
211	0xbccc244a	-0.024919648
212	0xbd23f269	-0.040026102
213	0xbb5e76ef	-0.0033945402
214	0xbd25dcad	-0.040493656
215	0xbd325189	-0.04353479
216	0xbd1def28	-0.038558155
217	0xbc9bdb7b	-0.019025555
218	0xbbd2101b	-0.0064106113
219	0xbd47122f	-0.048601326
220	0xbc9dfb2b	-0.019284805
221	0xbb495556	-0.003072103
222	0xbcfab55e	-0.03060406
223	0xbcf91ab1	-0.030408235
224	0xbca38d29	-0.019964771
225	0xbca12096	-0.019668858
226	0x3c64cf5e	0.013965456
227	0xbcd4a430	-0.025957197
228	0xbcc3a2e1	-0.023881378
229	0xbd4432bf	-0.047899958
230	0xbbc60517	-0.006043087
231	0xbc19a359	-0.009377324
232	0xbcb6bd35	-0.022307018
233	0xbd2e12ee	-0.04249852
234	0xbd496587	-0.04916909
235	0xbce15347	-0.02750553
236	0xbd32ce7d	-0.043653954
237	0xbc2966ed	-0.010339481
238	0xbc93fb44	-0.018064149
239	0xbd3f1565	-0.046651263
240	0xbc01d66e	-0.007924659
241	0xbd1747ad	-0.03693359
242	0xbd07f43c	-0.033191904
243	0xbcc764ff	-0.02434015
244	0xbd1584cb	-0.036503594
245	0xbcfa8071	-0.030578824
246	0xbcd36b3c	-0.02580797
247	0xbcbe3536	-0.023218732
248	0xbd2b3803	-0.041801464
249	0xbb8e705f	-0.004346892
250	0xbcc08f63	-0.023505872
251	0xbd33f165	-0.043931384
252	0xbcad3de7	-0.021147681
253	0xbce84316	-0.028352302
254	0xbcb05fbd	-0.021530027
255	0xbd171a1f	-0.036890145

conv_layers.6.bias f4 [120]
0	0xbd164b21	-0.036692742
1	0xbd04bd75	-0.032407243
2	0xbe65603a	-0.22399989
3	0x3d5e83bf	0.05432486
4	0xbe8d2540	-0.27567482
5	0xbcaae4e4	-0.020861097
6	0xbd5eb078	-0.054367512
7	0xbd3c4bc6	-0.0459707
8	0xbcfdcf8e	-0.030982759
9	0xbd0b94be	-0.0340774
10	0xbdda174c	-0.10648975
11	0x3d6029f5	0.054727513
12	0xbdca9604	-0.098918945
13	0xbf3b14c7	-0.7307858
14	0xbc0aa1a9	-0.008461394
15	0xbd52aa06	-0.05143168
16	0x3dff6f48	0.12472397
17	0xbc1ae28d	-0.009453428
18	0xbeeec6f1	-0.46636155
19	0xbe7aadc8	-0.24480355
20	0xbcb7633e	-0.02238619
21	0xbbb18b02	-0.0054181824
22	0xbf05f941	-0.52333456
23	0xbc135d41	-0.008994401
24	0xbc352ff9	-0.011058801
25	0xbeed5d27	-0.46360132
26	0xbed470b0	-0.41492224
27	0xbd343551	-0.04399616
28	0xbe6279d0	-0.2211678
29	0xbf20d8e8	-0.6283097
30	0xbe5f64dc	-0.21815819
31	0xbee50793	-0.4473234
32	0xbe10a178	-0.14124095
33	0x3effbe70	0.4994998
34	0xbf36ca7a	-0.71402705
35	0xbd970863	-0.073746465
36	0xbd12db44	-0.03585364
37	0xbf20d6d1	-0.62827784
38	0x3e4d551c	0.20051998
39	0xbdde8da6	-0.10866861
40	0xbed54c95	-0.4165999
41	0xbed0082f	-0.40631244
42	0xbd001ecb	-0.031279366
43	0xbd1332cb	-0.03593711
44	0xbcf09024	-0.029365607
45	0x3c11694b	0.008875201
46	0xbda732d7	-0.08163994
47	0xbca9fc4b	-0.020750185
48	0xbe958af8	-0.29207587
49	0x3e87235f	0.26394174
50	0xbc65228a	-0.013985286
51	0xbd0aca68	-0.033884436
52	0xbd82ba4b	-0.06383189
53	0xbccd2b34	-0.025045015
54	0xbe96e191	-0.2946897
55	0xbf782aff	-0.96940607
56	0xbf31a509	-0.6939245
57	0xbdb609f4	-0.08888617
58	0xbd37f672	-0.044912763
59	0xbed931d7	-0.42420837
60	0xbceed774	-0.02915547
61	0xbd286c81	-0.041119102
62	0xbd7ce92e	-0.061745815
63	0xbd060c3d	-0.032726515
64	0xbe21f21e	-0.15815017
65	0xbdd80330	-0.10547483
66	0xbd1510bb	-0.03639291
67	0xbf337624	-0.70102143
68	0xbd1b68fb	-0.037941914
69	0xbcc5c422	-0.024141375
70	0xbcbb3e83	-0.022856956
71	0xbd500d7f	-0.05079412
72	0xbf45094a	-0.769673
73	0x3db1bdba	0.086787656
74	0xbd0e1d8c	-0.034696147
75	0xbcb8caf5	-0.022557715
76	0xbedf6021	-0.43628028
77	0xbf1bea69	-0.60904557
78	0xbbc2189e	-0.0059233448
79	0xbebddf26	-0.3708431
80	0x3f2b3a49	0.6688581
81	0xbcca6f41	-0.024711253
82	0x3eeabe67	0.4584839
83	0xbc9ec6b6	-0.019381862
84	0xbe8b733e	-0.2723636
85	0xbd2070eb	-0.039170187
86	0xbc834eee	-0.016028848
87	0xbf00ff52	-0.5038959
88	0xbe6a9f03	-0.2291222
89	0xbe39996d	-0.18124934
90	0xbe90135e	-0.28139776
91	0xbd312b13	-0.04325397
92	0xbea5596e	-0.32294792
93	0xbef2e1ab	-0.47437796
94	0xbe47b05d	-0.19500871
95	0xbf28a325	-0.6587394
96	0xbbb60ab5	-0.0055554756
97	0xbcf10a6d	-0.029423917
98	0xbea9cb6e	-0.33163017
99	0xbd0e7536	-0.03477975
100	0xbbe7ce6e	-0.007074169
101	0xbcccc9df	-0.024998603
102	0xbec9376c	-0.39300096
103	0xbd2e984f	-0.04262572
104	0x3e4f3cbc	0.20238012
105	0xbcefffac	-0.029296719
106	0x3dc6fe37	0.097164564
107	0xbde5bf1c	-0.11218092
108	0xbf258978	-0.64662886
109	0xbe75d5d4	-0.2400735
110	0xbe38e59d	-0.1805634
111	0xbe378c9f	-0.17924736
112	0xbea1cff3	-0.31603965
113	0xbf296627	-0.661715
114	0xbd4bc305	-0.049746532
115	0xbd4c4f59	-0.04988036
116	0xbe8982df	-0.2685766
117	0xbd07a416	-0.03311547
118	0x3d65a6ef	0.056067403
119	0xbded84bf	-0.11597585

fc_layers.0.weight f4 [84, 120]
0	0xbcd1d9c2	-0.02561653
1	0x3cd9e44e	0.026598122
2	0xbb8bc854	-0.0042658243
3	0xbded9166	-0.11599998
4	0x3e4daf94	0.20086509
5	0xbb9e4cad	-0.004830918
6	0x3c7ae99b	0.015314485
7	0x3ccb14a3	0.024790114
8	0xbd2e833c	-0.042605624
9	0xbd3f0155	-0.04663213
10	0xbb08a331	-0.0020849223
11	0xbe11340e	-0.14180014
12	0xbcf52060	-0.029922664
13	0xbe0cbe09	-0.13744368
14	0x3d28b04b	0.04118375
15	0xbd989e30	-0.07452047
16	0xbd96feec	-0.07372841
17	0x3d8c1f4c	0.06841907
18	0xbe98630a	-0.2976306
19	0xbdae3424	-0.08506039
20	0x3d59b236	0.05314847
21	0x3d87275d	0.06599305
22	0x3d8317ab	0.06400999
23	0xbc642023	-0.013923678
24	0xbd8ddc74	-0.06926814
25	0x3dbb2d01	0.09139443
26	0xbe24c639	-0.16091241
27	0xbd704b17	-0.05866536
28	0x3d2de236	0.04245206
29	0xbc875afa	-0.016522873
30	0x3bcb9f12	0.006214031
31	0x3b048d93	0.0020225986
32	0xbe0c39e6	-0.13693962
33	0xbe2ad3d9	-0.16682376
34	0xbda0c795	-0.07850567
35	0x3d5a95fe	0.0533657
36	0xbd1cabbf	-0.038249727
37	0x3d6d730d	0.05797105
38	0xbc8d0386	-0.017213594
39	0xbdb66206	-0.08905415
40	0xbdaeb9f8	-0.085315645
41	0xbd02eaa3	-0.03196205
42	0x3ad58ca9	0.001629253
43	0x3d5c5071	0.053787652
44	0xbd9107aa	-0.0708154
45	0xbcddc63a	-0.02707206
46	0xbdc65c0d	-0.09685526
47	0xbb3f7e9c	-0.0029219752
48	0xbd4cab3f	-0.049968
49	0xbe7c48c2	-0.2463713
50	0x3cbf3008	0.023338333
51	0x3b0db5d6	0.0021623275
52	0xbb9a076f	-0.004700593
53	0x3c1b78d6	0.009489259
54	0xbe40347b	-0.1877002
55	0x3d1d2c94	0.03837259
56	0xbe4bdad9	-0.19907703
57	0xbd1f07b8	-0.03882572
58	0x3cbd5760	0.023112953
59	0xbd0bc4c3	-0.034123193
60	0xbc400615	-0.0117202
61	0x3d31f46e	0.043445997
62	0x3dacb80e	0.08433543
63	0xbbe36b97	-0.006940316
64	0xbee9644b	-0.4558433
65	0xbb5d997e	-0.0033813412
66	0xbcdf0903	-0.027225977
67	0xbd82e619	-0.06391544
68	0x3d363fb0	0.04449433
69	0x3c7a38a1	0.01527229
70	0x3c23765f	0.009976952
71	0x3c9d8cd6	0.019232195
72	0x3c4ca0a6	0.012489473
73	0xbe4f5bdf	-0.2024989
74	0x3c353e83	0.011062267
75	0xbd8f10eb	-0.06985649
76	0xbd58c741	-0.0529244
77	0xbe380b5b	-0.17973082
78	0xbc8e26b5	-0.017352441
79	0xbdb5114d	-0.088411905
80	0xbe2c0adc	-0.16801018
81	0x3d7e4586	0.06207802
82	0xbec30863	-0.38092336
83	0x3d167694	0.03673418
84	0xbcb45525	-0.022013256
85	0x3c8bb391	0.017053397
86	0xbad4fac0	-0.0016249046
87	0x3db088ba	0.086198285
88	0xbded9f35	-0.11602632
89	0x3d13c2f2	0.036074586
90	0x3d1513e5	0.036395926
91	0xbd743176	-0.059617482
92	0xbd98d883	-0.07463171
93	0xbde45a04	-0.111499816
94	0xbe86bd42	-0.26316267
95	0xbd52f5d9	-0.05150399
96	0xbb4d41fe	-0.0031319852
97	0x3bedda72	0.0072587067
98	0xbd6eda21	-0.058313493
99	0x3cb3a2f1	0.021928282
100	0x3d91679d	0.07099841
101	0xbcf38635	-0.02972708
102	0xbcf7f22a	-0.03026684
103	0x3d077a2f	0.033075508
104	0xbea45ff1	-0.32104447
105	0xbd46b62d	-0.04851358
106	0xbe41ef51	-0.18938948
107	0xbe2498b4	-0.16073877
108	0x3c1188fe	0.008882759
109	0xbe8f0e44	-0.2794057
110	0xbdec2550	-0.11530554
111	0xbd5a28f9	-0.05326173
112	0x3cbdad3d	0.023153896
113	0xbe0d915c	-0.13824981
114	0x3c0754f2	0.008259999
115	0x3ce0c441	0.027437331
116	0xbd376911	-0.044777934
117	0xbd431103	-0.047623646
118	0xbef247d7	-0.47320434
119	0x3c11ea21	0.008905918
120	0xbd2c4f57	-0.042067852
121	0x3cc60edf	0.024177013
122	0xbe9d85eb	-0.30766234
123	0x3ded0945	0.11574034
124	0x3da8e509	0.0824681
125	0xbc3a55a9	-0.011372962
126	0x3b0b28bc	0.0021233996
127	0xbbd4487d	-0.006478368
128	0xbd63047c	-0.0554242
129	0x3cc0fd7b	0.023558369
130	0xbe4270c8	-0.18988335
131	0x3e61a767	0.22036515
132	0xbac32a58	-0.0014889939
133	0xbed6987c	-0.4191321
134	0x3bb1cbde	0.005425914
135	0xbed8dffa	-0.4235838
136	0x3ebaa1b0	0.36451483
137	0xbaeff008	-0.0018305788
138	0xbe81c385	-0.25344482
139	0x3e41a285	0.18909653
140	0xbc5fb765	-0.0136545645
141	0xbd728260	-0.059206367
142	0xbe09a292	-0.13440922
143	0xbd7f75fe	-0.062368385
144	0xbcdcc0cb	-0.0269474
145	0xbe8bae8e	-0.27281612
146	0xbedf7029	-0.4364026
147	0x3c7e2588	0.015511878
148	0xbd64fbf0	-0.05590433
149	0xbdbf4c2c	-0.093407005
150	0x3f1922c5	0.5981868
151	0x3dcaaac6	0.09895854
152	0x3c27b5b3	0.010236192
153	0xbddb7c4e	-0.107170686
154	0xbdefcbfe	-0.1170883
155	0x3d5f2ec6	0.054487966
156	0xbd042262	-0.032259353
157	0xbef9d348	-0.48794007
158	0xbefdde38	-0.49583602
159	0xbe8fda3f	-0.28096196
160	0x3c760992	0.01501693
161	0x3d31892c	0.043343708
162	0x3c086272	0.008324252
163	0xbce32291	-0.027726443
164	0x3d905a84	0.070485145
165	0x3ed316e5	0.41228405
166	0xbd5296ac	-0.051413223
167	0x3ba0ceb2	0.0049074525
168	0x3c96eec3	0.018424397
169	0xbe6e1f0d	-0.23254032
170	0x3c42cf5a	0.011890257
171	0xbbff35c7	-0.007788393
172	0x3c5744a0	0.01313892
173	0x3b37ca74	0.0028044255
174	0x3d83fec6	0.064450786
175	0xbe70df49	-0.23522677
176	0xbe04fba5	-0.1298662
177	0xbd730935	-0.059334952
178	0xbc78bad5	-0.015181263
179	0xbe919b78	-0.28438926
180	0x3bd0f193	0.006376454
181	0xbd40d274	-0.047075704
182	0x3d157d0b	0.036496203
183	0x3d439531	0.047749702
184	0xbf0b2794	-0.54357266
185	0x3d6597bc	0.05605291
186	0xbd6203bd	-0.055179346
187	0x3ebd92eb	0.37026152
188	0x3cf1ee1f	0.02953249
189	0x3cf8b197	0.030358119
190	0x3c83a134	0.016068079
191	0xbd22a5cd	-0.0397089
192	0xbd5dd888	-0.05416158
193	0xbecc2371	-0.3987079
194	0xbc823428	-0.01589401
195	0xbbc57342	-0.0060257027
196	0xbe00baa8	-0.12571204
197	0x3e80cef5	0.25157896
198	0xbc1ed0ef	-0.009693368
199	0xbe9e05ba	-0.30863744
200	0x3aa94231	0.0012913403
201	0x3d07a22b	0.03311364
202	0x3eac2439	0.33621386
203	0xbca6b20c	-0.020348571
204	0xbd84fa16	-0.064930126
205	0x3d8700c4	0.06591943
206	0xbb0e71b9	-0.0021735264
207	0x3d25953b	0.04042552
208	0xbc35ae74	-0.011088956
209	0x3e185774	0.1487711
210	0xbdd098e5	-0.10185412
211	0x3b47507a	0.0030412958
212	0xbee540ee	-0.447761
213	0xbe0c274f	-0.1368687
214	0xbe9be9e7	-0.3045189
215	0xbdca32dd	-0.09872983
216	0xbd702080	-0.058624744
217	0x3d522b80	0.051311016
218	0xbe2b1310	-0.1670649
219	0x3d636aea	0.055521883
220	0x3cdde51e	0.02708679
221	0x3cdc61ff	0.026902197
222	0xbed675b8	-0.41886687
223	0x3c0d7b2e	0.008635325
224	0xbebb7bb8	-0.36617827
225	0x3d25b5f0	0.040456712
226	0xbf00f2f8	-0.5037074
227	0xbf0733b8	-0.5281329
228	0x3e01a4e4	0.12660557
229	0x3d231cf9	0.039822552
230	0xbf2713bd	-0.65264493
231	0x3cd317c6	0.025768172
232	0x3e75e3d3	0.2401269
233	0x3e8c4fbc	0.27404583
234	0x3b1f7269	0.0024329668
235	0xbad2b428	-0.0016075419
236	0xbb83c811	-0.0040216525
237	0x3c07a79a	0.008279705
238	0xbf79ac7e	-0.9752883
239	0x3c36a6ba	0.011148149
240	0xbbc73c09	-0.006080155
241	0x3a4a05ea	0.000770657
242	0x3e048a0b	0.12943284
243	0xbd1093ee	-0.035297327
244	0xbd902fd1	-0.0704037
245	0x3c641019	0.013919854
246	0xbd892985	-0.06697372
247	0xbc1f9bc3	-0.009741726
248	0xbca5b888	-0.020229593
249	0xbaa6f08c	-0.0012736483
250	0x3d50635e	0.050876014
251	0xbf0e8adf	-0.5568065
252	0xbcc5a1ce	-0.024125006
253	0xbdc9bfc3	-0.09851029
254	0xbbe3f52e	-0.006956718
255	0xbf359964	-0.7093718

fc_layers.0.bias f4 [84]
0	0xbebbc113	-0.3667074
1	0x3f971bc8	1.1805353
2	0xbf92610e	-1.1435869
3	0x3f4af2e9	0.792769
4	0xbf38c9a9	-0.7218271
5	0x3f28ee36	0.6598848
6	0xbe9eb974	-0.31000865
7	0xbf6c23f7	-0.9224238
8	0x3ee89a53	0.4543024
9	0xbf1c2a75	-0.61002284
10	0xbf5957a3	-0.8489935
11	0x3ebfaf25	0.37438312
12	0x3f111279	0.5666881
13	0xbe09991a	-0.1343731
14	0xbf8eea47	-1.1165246
15	0xbf801a34	-1.0007997
16	0xbd6a3723	-0.05718149
17	0xbf261309	-0.64872795
18	0xbeef3192	-0.46717507
19	0xbeb9cb3c	-0.36287868
20	0x3e9999ed	0.3000025
21	0x3eb5d856	0.35516614
22	0xbf1e9d6e	-0.6195897
23	0xbf4a0eaf	-0.78928655
24	0xbf824534	-1.0177369
25	0xbf37e05b	-0.71826714
26	0xbe95a311	-0.29225972
27	0xbfbd3a7a	-1.4783471
28	0xbfaac3ef	-1.3341044
29	0xbe621833	-0.22079544
30	0xbf25b4fd	-0.6472929
31	0xbec79e4a	-0.38987952
32	0xbf2025d2	-0.6255771
33	0xbe90ebcb	-0.28304896
34	0xbf196892	-0.59925187
35	0xbf803a32	-1.001776
36	0xbf3d8892	-0.74036515
37	0xbe5581ad	-0.20850249
38	0xbf763972	-0.96181405
39	0xbeae827f	-0.34083936
40	0xbf4f4c4c	-0.80975795
41	0xbdcd8e30	-0.10036886
42	0xbf8971cb	-1.0737852
43	0xbe0ab615	-0.13546021
44	0xbe5ecb4a	-0.21757236
45	0xbec8d2bf	-0.39223287
46	0xbe5d0e49	-0.2158748
47	0xbf0105fb	-0.5039975
48	0xbeef984e	-0.46795887
49	0xbf69c2d0	-0.91312885
50	0xbfa29c81	-1.2704011
51	0xbf92db4b	-1.1473173
52	0xbed4081e	-0.41412443
53	0xbf042a9f	-0.51627535
54	0xbf021eff	-0.50828546
55	0xbea15ea6	-0.31517524
56	0xbf184949	-0.59486824
57	0xbf1457e3	-0.57946604
58	0xbfb73bd7	-1.4315137
59	0x3e12acec	0.14323777
60	0xbf14adfd	-0.58077985
61	0xbdde2e5b	-0.10848685
62	0xbf232caa	-0.63740027
63	0xbe057654	-0.1303342
64	0xbf4b9d27	-0.7953667
65	0xbebe60b2	-0.37183148
66	0xbf857343	-1.04258
67	0xbf85ea7e	-1.0462186
68	0xbdd68125	-0.10473851
69	0xbf6bb78a	-0.92076933
70	0x3e091f2a	0.13390794
71	0xbf0f5557	-0.55989593
72	0xbde0bc4a	-0.10973413
73	0xbf19f49d	-0.60138875
74	0x3da3a715	0.07990853
75	0xbe5ee40b	-0.21766679
76	0xbf37af5f	-0.7175197
77	0x3efa7245	0.48915306
78	0xbe7b8236	-0.2456139
79	0xbe421b89	-0.18955816
80	0xbef8be87	-0.4858286
81	0x3ecfa563	0.40555868
82	0xbf53a104	-0.82667565
83	0xbeafe7b0	-0.3435645

fc_layers.2.weight f4 [10, 84]
0	0xbd232318	-0.03982839
1	0xbe770845	-0.24124248
2	0xbf4dba71	-0.8036261
3	0xbe28a875	-0.16470511
4	0x3c078cc6	0.008273309
5	0xbe9a7b95	-0.3017241
6	0xbe6b9f8e	-0.23010084
7	0xbd876c0a	-0.06612404
8	0xbe89c5ad	-0.26908627
9	0x3bb4d52f	0.0055185775
10	0xbe044505	-0.12916954
11	0xbf064e8c	-0.52463603
12	0xbe20952f	-0.15681909
13	0xbcb2d352	-0.021829281
14	0x3be1cdf9	0.006891009
15	0xbe43f919	-0.19137992
16	0x3e5bec2b	0.2147681
17	0xbc8864d6	-0.016649645
18	0x3e81d787	0.25359747
19	0xbf90303c	-1.126472
20	0xbefde6b1	-0.49590066
21	0xbe7173cd	-0.2357933
22	0x3e3c7748	0.18404877
23	0xbf28559b	-0.65755624
24	0xbf39a9bb	-0.72524613
25	0x3e1d8daf	0.15386079
26	0x3ddc0ab0	0.10744226
27	0xbede84ec	-0.43460786
28	0xbe402610	-0.1876452
29	0xbe84e253	-0.25953922
30	0xbe5d91b2	-0.2163761
31	0xbe6aa8a8	-0.229159
32	0xbe4c65e5	-0.19960745
33	0x3d8e4161	0.06946064
34	0x3d4e6544	0.050389543
35	0xbf9d7f94	-1.2304559
36	0xbdb261e3	-0.08710077
37	0x3e7bddab	0.24596278
38	0x3e0256d5	0.12728436
39	0x3d609eb1	0.05483884
40	0x3da72738	0.08161777
41	0xbe1a49b5	-0.1506718
42	0xbe74c058	-0.23901498
43	0x3e7d83ab	0.24757259
44	0xbf013b1e	-0.5048083
45	0xbd4009d6	-0.04688438
46	0xbe8e57eb	-0.2780145
47	0x3dc1a520	0.09455323
48	0xbe256cb6	-0.16154751
49	0xbf15807c	-0.58399177
50	0xbe3f3153	-0.1867116
51	0xbe22f253	-0.15912752
52	0x3e230d77	0.15923105
53	0x3cf7022f	0.030152408
54	0xbf0eff67	-0.55858463
55	0xbd88c4c3	-0.06678154
56	0xbd054f69	-0.032546435
57	0xbe22478f	-0.1584761
58	0xbea793b5	-0.3272988
59	0x3cf7be1a	0.030242015
60	0xbd28bfd1	-0.041198555
61	0xbc34f281	-0.011044146
62	0xbe11968a	-0.14217582
63	0xbc180016	-0.009277364
64	0x3cbc30b0	0.022972435
65	0xbee9677d	-0.45586768
66	0xbe364e7a	-0.17803374
67	0xbe11a8a3	-0.14224486
68	0xbde5fc6c	-0.11229786
69	0xbc94210e	-0.018082168
70	0xbf493f17	-0.7861189
71	0xbde2f131	-0.1108116
72	0xbe145cc3	-0.14488511
73	0x3d650668	0.055914313
74	0x3eb005af	0.34379336
75	0xbe907b6b	-0.2821916
76	0x3e2a577f	0.1663494
77	0xbec18822	-0.37799174
78	0xbe7acd98	-0.2449249
79	0xbc13df65	-0.009025429
80	0x3c9321ce	0.017960455
81	0xbf0ac200	-0.5420227
82	0xbd2dd9ce	-0.042444043
83	0xbe3f1d7b	-0.1866359
84	0xbd1df93d	-0.03856777
85	0x3d5fd1f1	0.054643575
86	0xbf1d9f06	-0.61570776
87	0xbed098d2	-0.40741593
88	0x3c1b8bfa	0.009493822
89	0xbe4d2234	-0.20032579
90	0xbd6b2ee5	-0.05741777
91	0xbe48456d	-0.19557734
92	0xbda396bc	-0.07987735
93	0xbd9ef015	-0.07760636
94	0xbdafcf64	-0.085844785
95	0xbf0fc7e6	-0.56164396
96	0xbe05415a	-0.13013211
97	0x3bfb7a1e	0.0076744696
98	0xbe9d5ec9	-0.30736378
99	0xbee0618a	-0.43824416
100	0xbe52dfad	-0.20593138
101	0xbe2c83d1	-0.16847159
102	0xbda665df	-0.08124899
103	0xbcbda7e1	-0.02315134
104	0xbe0cd0b0	-0.13751483
105	0x3d9a0d57	0.075220756
106	0xbf08d1ca	-0.5344511
107	0xbe4a5123	-0.19757514
108	0xbf007fc1	-0.50194937
109	0xbe48ec8c	-0.19621485
110	0xbe5557ab	-0.20834224
111	0x3d5cfa28	0.053949505
112	0x3d02683b	0.031837683
113	0xbed9dd72	-0.42551762
114	0xbdd7ce24	-0.10537365
115	0xbeaee241	-0.34156993
116	0xbe3b75b6	-0.18306622
117	0xbcd38c37	-0.025823696
118	0xbd119315	-0.03554066
119	0xbedea1d1	-0.4348283
120	0x3cd94992	0.026524339
121	0x3b1f36b9	0.0024294092
122	0xbca3844a	-0.019960541
123	0xbe42bc57	-0.19017158
124	0xbf0b3de1	-0.54391295
125	0xbd5bbb6f	-0.053645547
126	0xbe1f4b06	-0.15555963
127	0xbec86cfb	-0.39145645
128	0xbe6c0c96	-0.23051676
129	0xbe0c540f	-0.13703941
130	0xbd05f5fb	-0.03270529
131	0xbd487f62	-0.048949607
132	0x3df37761	0.11888004
133	0xbf21325d	-0.62967473
134	0xbfb6d69c	-1.4284244
135	0xbe7e42eb	-0.24830215
136	0xbe1836ab	-0.14864604
137	0xbcb9fc57	-0.022703333
138	0xbd501971	-0.050805513
139	0xbe9c10a0	-0.30481434
140	0xbea14f18	-0.31505656
141	0xbe702c9e	-0.2345452
142	0xbe87d184	-0.26527035
143	0x3e90695b	0.2820538
144	0xbd9194ac	-0.07108435
145	0xbd93b3c0	-0.07212019
146	0xbeea36e4	-0.45745003
147	0xbcbe28ab	-0.023212751
148	0xbcb13bc3	-0.021634942
149	0xbdd888a4	-0.10572937
150	0xbe55609d	-0.20837636
151	0xbde3fce2	-0.11132218
152	0xbe08efdb	-0.13372748
153	0xbd58ee13	-0.05296142
154	0x3c86df33	0.016463852
155	0x3d956814	0.07295242
156	0xbbfd514a	-0.0077306377
157	0x3d260f82	0.040542133
158	0x3e06a299	0.13147964
159	0xbec0d106	-0.37659472
160	0xbd4a8d78	-0.04945132
161	0xbe0181d1	-0.12647177
162	0xbe969e35	-0.29417577
163	0xbd70e600	-0.058813095
164	0x3c989048	0.018623486
165	0x3e8dd2db	0.27699932
166	0x3eb643ce	0.35598606
167	0xbd1e9be3	-0.038722884
168	0xbd59cc08	-0.053173095
169	0xbe67c07b	-0.22632019
170	0xbf9b5bdf	-1.2137412
171	0x3dc05469	0.093911
172	0x3e0aba23	0.13547568
173	0xbe68a864	-0.22720486
174	0x3be8ca1b	0.007104171
175	0xbe29f3c4	-0.16596895
176	0x3e9c3e24	0.3051616
177	0x3d12ef65	0.035872836
178	0xbe1ed457	-0.15510689
179	0xbd33201a	-0.043731786
180	0xbe70b661	-0.23507072
181	0xbc65884d	-0.014009547
182	0xbdc437eb	-0.09580978
183	0xbe1d8521	-0.15382816
184	0x3dfb3ced	0.1226748
185	0xbf7922e1	-0.97318846
186	0xbeaf08b1	-0.3418632
187	0xbd9418ff	-0.0723133
188	0xbe442c90	-0.19157624
189	0xbe811b49	-0.2521613
190	0xbe92ff1d	-0.2871026
191	0xbe970432	-0.29495388
192	0xbe1a7f81	-0.15087701
193	0xbe0b0565	-0.13576277
194	0x3d85e755	0.06538264
195	0xbe462767	-0.19350968
196	0xbde61a50	-0.112354875
197	0xbe49fde3	-0.19725756
198	0x3e192b3c	0.14957899
199	0xbdb6074c	-0.088881105
200	0x3d2b9b8a	0.04189638
201	0x3c4f92a7	0.012669242
202	0xbc380893	-0.011232513
203	0xbf33ba01	-0.70205694
204	0xbf0678d7	-0.52528137
205	0xbd029263	-0.031877887
206	0x3d99a8a3	0.07502868
207	0xbe823fe3	-0.25439367
208	0xbed4797f	-0.41498944
209	0x3d3c0c4f	0.045910176
210	0xbef7f362	-0.48427874
211	0xbe90fe76	-0.28319138
212	0x3dbdb4e1	0.092630155
213	0xbd124e75	-0.035719354
214	0xbd4fce6d	-0.050733972
215	0x3d80774c	0.06272754
216	0xbb956502	-0.00455916
217	0xbe85b9a2	-0.2611819
218	0xbe86399f	-0.26215836
219	0x3dec09cd	0.11525307
220	0x3e18fb21	0.14939548
221	0x3db9de3e	0.090755925
222	0xbe07ae6d	-0.13250132
223	0x3d3fb2dc	0.046801433
224	0xbcc3055b	-0.023806265
225	0x3df50392	0.119635716
226	0xbe47cdc3	-0.19512086
227	0x3d401a67	0.04690018
228	0xbf27ebc3	-0.6559412
229	0xbe202ab8	-0.15641296
230	0xbd26f619	-0.04076204
231	0xbc895853	-0.01676575
232	0xbd97ee41	-0.0741849
233	0x3dc417a5	0.09574822
234	0xbe9b5782	-0.303402
235	0xbe9aff92	-0.3027311
236	0xbfa15065	-1.260266
237	0xbccddb44	-0.025128968
238	0xbd8981f4	-0.0671424
239	0x3d7a094c	0.061044022
240	0xbeb95304	-0.36196148
241	0xbdad9f67	-0.08477669
242	0x3d29bd41	0.041440252
243	0xbf29b3f2	-0.662902
244	0xbd7b069f	-0.06128561
245	0xbea603dd	-0.32424822
246	0xbeb0b5b6	-0.34513634
247	0xbdb6a554	-0.089182526
248	0x3c0043fd	0.00782871
249	0xbe53fbd8	-0.2070154
250	0xbeee2536	-0.46512765
251	0xbee023a5	-0.43777195
252	0xbddf3211	-0.10898221
253	0xbd053ed1	-0.03253061
254	0xbeb0f632	-0.34562832
255	0x3df40964	0.119158536

fc_layers.2.bias f4 [10]
0	0xbe5e6e9b	-0.2172188
1	0x3ef7adae	0.48374695
2	0x3d14d255	0.0363334
3	0xbf1a7448	-0.6033368
4	0x3dda941c	0.10672781
5	0xbeba5e63	-0.36400136
6	0xbf8b8b39	-1.0901862
7	0x3ebec2fe	0.37258142
8	0x3f702441	0.9380532
9	0xbab4bb4a	-0.0013788727
